mnist_model.pth (torch, 409200 bytes, 4 tensors)

fc.1.weight f4 [128, 784]
00000000: 2276 4f3c 455c 3a3d 948c ef3c be91 103c
00000010: 62f4 41bc 980d 093c 3d55 a23b f3a9 013b
00000020: 12d9 65bc 5ebd 8b3c d380 063d c2a7 463c
00000030: ef08 493d 2868 b93c ccb4 253c 2b48 383d
00000040: 458c 003d 12d1 f33b f2e1 e83b b3ee c7ba
00000050: 5080 ad3b ea34 f53c a0c8 073c 3241 303c
00000060: 6fed f93c 2901 2b3d db65 7d3a f683 e4bb
00000070: 1173 493d 7d1b 153d 3b87 093d aa29 c63c
00000080: a1fc 5b3d 54af 01bc 44ee 00bd 5847 efbc
00000090: 1a8b 26bd 2f02 99bc 3282 71bc 5081 353d
000000a0: b890 80bc c13b 5c3c d5db 343c 89c9 923c
000000b0: e184 babc 3f87 0c3d 7df7 ea3b cd6e 4c3d
000000c0: 237f 6dbb e0b3 86bc 3284 0d3c 72b7 373d
000000d0: 1fd2 2f3d ed7e 0d3d 0a4e a93c 0bbe ab39
000000e0: ff74 2b3d 1c30 d13c 630a 4b3d 53f0 453d
000000f0: 756a 9b3c 5757 233d 044e ed3c 80ac dfbb
00000100: 9a14 9fbc 7b72 02bd 81a4 56bc 582c 66bd
00000110: b834 efbc b49a 97bd a5aa b1bd 0762 5bbd
00000120: 666a 69bd 7418 a9bb baa7 78bc 746f dbbb
00000130: ccf0 373c 1068 a7bc 6079 013d 5318 d0b9
00000140: 9b12 243d 36a9 49bc 36d3 2c39 7b0b cebb
00000150: f74f f9bb cc09 0b3c ae73 033c ece7 4cbc
00000160: 13e8 1d3d 584e 6c3b 90d6 89bc 6dd8 9dbb
00000170: be36 bcbd abf1 27be 969c 0dbe 2d07 efbd
00000180: 4c6e b0bd 3637 76be a179 43be 63da 05be
00000190: 5943 d3bd ac3b 06bd 9c06 cabc 59da 9fbc
000001a0: 9934 2cbd 22d8 9d3c b9f9 223d 308b ad3a
000001b0: d981 4a3d 2960 5b3d 1b9c 0c3d 7ef1 5f3c
000001c0: 748e c63c 6daf 373d 82c7 263c d6e6 033b
000001d0: 29cf 963c 6c8b 39bd 434e 8dbd 8f11 40bd
000001e0: 2b07 44be 7a8a b0be 6374 92be d784 9fbe
000001f0: b385 dabe 9666 05bf 75a1 d3be bfba 37be
00000200: 9bf1 babd e7fe 363d dc02 e73d d64a a1bd
00000210: d1f0 36be 7dd6 bcbb c9c6 7d3b f16d a7bc
00000220: fdc3 4dbc 9419 8cbb 01c7 4a3d 4eb8 c53b
00000230: a733 d63b 092d 173d 4fd9 fcbb 1bee e73c
00000240: 7b30 17bd 9c10 94bd ad0a 7bbd 23f8 6abd
00000250: 8321 38be 300f 8abe 984d 5bbe 8a3c 95be
00000260: bc4b bebe 6997 98be bad5 52be 7eb0 a7be
00000270: 963d 62be efde 86be 3b4f 32be f3f6 febd
00000280: 17bb b1bd 7127 0ebe 411e f5bd 6249 a3bb
00000290: 10d6 9a3c 6e8b 19bd 273e 013d 3473 2cbc
000002a0: 43a4 5f3d bd11 563d 4175 3b3c e11f 873d
000002b0: 12f4 003e 07ae 4bbd 16cf 9a3b 0d34 9ebd
000002c0: 3648 0dbd 5c3f c43d fc8b b43d 6370 d0bc
000002d0: 2e7d e8bd 8cec b2bd 18aa 45be dcca 373d
000002e0: 278a 16be 67b5 1fbd 93cc 1ebd d8f9 36bd
000002f0: 74f6 573e f8c6 0c3e 39f0 063e 485d 293e
00000300: 9601 383e 5c2d d83d f134 323c 7872 9d3c
00000310: 6574 673c 3d2f e2bb 2fca 213d a59e 893d
00000320: cc9d 023a be4c 11be 8294 b73d 7a57 833d
00000330: 4e3c 2e3e ae65 363e fff1 403e 1ca9 103e
00000340: 4a52 aa3e 8fb8 a73e a096 643e 2899 503e
00000350: 4489 dd3d d009 513d df03 033e 367d 943d
00000360: 6df2 da3d c26b 8a3c 6368 acbd 24d9 92bc
00000370: 5785 dc3d 218c be3d 53c7 103a 96bf fcbb
00000380: 4777 113d c5c8 8d3c 4b68 38bc ac0b fa3c
00000390: 448e 3c3c 5428 9ebc 4c66 12bd ac1e 63bd
000003a0: 4aa9 473e 2ad1 313e c7d1 413e 3dbd d73e
000003b0: 7de8 ab3e 3fbd 503e 165a 763e 8587 6a3e
000003c0: e802 7d3e 32b0 293e 00d9 293e df5e 513b
000003d0: 35df 743e 432a a13d 84bd 05be 919b 5bbe
000003e0: 3eb1 6d3d 4cf0 cb3d bdba 2a3d 6839 cbbb
000003f0: a0be 353c 376e 4bbb 4308 3f3c 3ee0 87bd
0.012662442 0.04549815 0.029241838 0.00882381 -0.011838051 0.008365057 0.004954009 0.0019785136
-0.014028804 0.01705807 0.0328377 0.0121249575 0.049080785 0.022632673 0.010113906 0.0449907
0.03138377 0.0074406946 0.007107013 -0.0015253633 0.005294837 0.029932458 0.008287579 0.010757731
0.030508725 0.041749153 0.0009666362 -0.006973739 0.049182 0.036403168 0.03357623 0.024189789
0.053707723 -0.007915337 -0.031477228 -0.029208824 -0.04066 -0.018677799 -0.014740514 0.044312775
-0.015694007 0.013441981 0.01103874 0.017918365 -0.02276844 0.03430867 0.007170616 0.049910355
-0.003623911 -0.016443193 0.008637475 0.04485268 0.042924996 0.034544874 0.020667095 0.00032757255
0.041859623 0.025535636 0.049570452 0.048324894 0.018971661 0.039878216 0.028967865 -0.0068259835
-0.019419003 -0.03184746 -0.013100744 -0.056194633 -0.029199943 -0.07402554 -0.08675126 -0.053560283
-0.056986235 -0.0051603857 -0.015176708 -0.006696636 0.011226844 -0.020435363 0.031609893 -0.00039690975
0.040056806 -0.012308409 0.0001648188 -0.0062879897 -0.0076084095 0.0084862225 0.008023186 -0.012506466
0.0385514 0.0036057439 -0.016825944 -0.0048170597 -0.09190129 -0.16400783 -0.13829264 -0.116712905
-0.086147875 -0.24044499 -0.19089366 -0.13071589 -0.1031558 -0.03277175 -0.024661355 -0.019513296
-0.04204235 0.0192681 0.039788935 0.0013240334 0.04944024 0.053558502 0.03432856 0.013668416
0.024237849 0.044845033 0.010179402 0.0020126603 0.018409329 -0.04529898 -0.06899693 -0.046891745
-0.1914336 -0.3448065 -0.2860442 -0.31156036 -0.4268013 -0.5210966 -0.4133412 -0.17942332
-0.09128114 0.044676688 0.11279842 -0.07875602 -0.17865302 -0.0057628737 0.0038723222 -0.020438166
-0.012558934 -0.00427551 0.04950619 0.0060339337 0.006536919 0.036908183 -0.007716335 0.02831178
-0.03691147 -0.072297305 -0.061289478 -0.057365548 -0.17981534 -0.26964712 -0.21416318 -0.2914775
-0.37167156 -0.29803017 -0.20589343 -0.3275184 -0.22093806 -0.2634196 -0.17413037 -0.124494456
-0.08678263 -0.13882233 -0.11968661 -0.004983113 0.018900901 -0.037486486 0.031553414 -0.010525513
0.05460001 0.05226301 0.01144153 0.06597877 0.12593105 -0.049726512 0.0047243936 -0.07724772
-0.034492694 0.09582397 0.088157624 -0.025444215 -0.11352001 -0.08736524 -0.19303167 0.044871196
-0.14701138 -0.038991358 -0.038769316 -0.044671863 0.21090108 0.13747776 0.13177575 0.1653949
0.17969355 0.105555266 0.01087688 0.019219622 0.014126872 -0.006902604 0.039499458 0.06719712
0.000498262 -0.14189431 0.089638725 0.06413169 0.17015192 0.17812225 0.18842314 0.1412701
0.33265907 0.32757995 0.22323084 0.20370924 0.10817197 0.05103475 0.12794445 0.072504446
0.1069077 0.016897086 -0.08418348 -0.017925806 0.1076762 0.09304071 0.00055228657 -0.0077132685
0.035514142 0.017307648 -0.011255334 0.030523144 0.011508528 -0.01930634 -0.03574209 -0.055449173
0.19498172 0.17364946 0.1892768 0.42136565 0.33575812 0.20384692 0.24057803 0.22903259
0.2470814 0.1657112 0.16586685 0.0031947417 0.23913272 0.07869389 -0.13060576 -0.21446063
0.05803036 0.09957942 0.041681994 -0.0062019117 0.011092812 -0.0031041035 0.011659685 -0.06634568

fc.1.bias f4 [128]
00000000: 7cab a7bc 16e9 a13d 9c9a f3bb d07f d1bd
00000010: 66b9 9dbc 161f 22bd 5713 813c 8997 a83a
00000020: d60f 0cbc 4199 f9bc 4a9c 03bd 8995 813c
00000030: 756f 253c 2538 493d dc44 1f3d 650f d0bc
00000040: 3d07 62bd 780b 8dbc b468 1abd d839 f2bc
00000050: 0265 30ba c5f0 bebc 8635 8dbc 6e7e ccbc
00000060: 9265 013c 9b4b 0abd bd45 abbc cbe6 efbc
00000070: 1f51 ccbc ef26 2abc 38ba f6bc 9c57 86bd
00000080: f9af e2bc 0917 e5bb 3554 02bd e5d7 de3b
00000090: c199 d43c 1f31 0d3d 3935 11bd 9885 acbd
000000a0: c0f5 f2bc 75d3 71bc 6e26 a83c 9d85 cfbc
000000b0: 1735 ee3c b764 8bbd f69a dc36 384d 4bbc
000000c0: 65fe 51bd 313a 7dbc b8f3 23bd b613 ccbc
000000d0: 46d5 acbc ba06 19bd e441 d0bc f9a9 fe3a
000000e0: 40c8 e0bb f947 8fba bcff 103d 78a0 5bbd
000000f0: 01ae b7bd c1d6 0a3c 0797 bebb abf5 60bd
00000100: 5871 febc 573b 1bbc bde2 ad3b cbd4 59bd
00000110: c921 82bd a73f 1cbd 5422 fc3c 9809 2bbd
00000120: d2a2 9fbc f69b 4abc 7eb4 14bd 8e34 933c
00000130: d4dc d6bc d50e 9bbc 0911 1bbc 8125 693c
00000140: 536a d4bc 9a01 b1bc 927e e2ba 6ba9 343b
00000150: 637c ee3c 43f0 b23b 0246 c4bc f091 d0bc
00000160: cdb6 20bd 8aff 26bd eef8 123c 4158 6dbc
00000170: 636f acbb 7492 07bd d66e 363c cd26 39ba
00000180: 09e7 ae3c 6683 383b f512 083d 1138 c9ba
00000190: bf51 9bbc 29cb 04bb fc03 d93c 2f10 e7bc
000001a0: 4f40 aabc bb15 59bd fe96 1e3d 91da 1cbd
000001b0: 59e1 85bb 0a19 26bd 0945 033c ea5d 3a3a
000001c0: 030e 143b cc68 963d 9a9d 8b3b 4e21 71bd
000001d0: f9de a3bd 9029 b9bc f240 1bbd 2952 76bd
000001e0: 3e6b 1f3c 7a27 b13c a6b7 d03c f9e8 77bb
000001f0: 5e53 e5ba 6f33 c23c 4b86 6ebc a0c8 5abd
-0.020467512 0.07905786 -0.0074342024 -0.102294564 -0.019253444 -0.039580427 0.015756292 0.0012862544
-0.008548697 -0.030468585 -0.03213147 0.015818374 0.010097374 0.04912581 0.03888403 -0.025397966
-0.055182684 -0.017217383 -0.03769751 -0.029568598 -0.00067289185 -0.023308167 -0.017237436 -0.02496263
0.007897751 -0.03376351 -0.020907277 -0.029284855 -0.024941025 -0.010385259 -0.030118093 -0.06559679
-0.0276718 -0.0069912714 -0.031818587 0.006800639 0.025952222 0.034470674 -0.035451148 -0.084239185
-0.029658198 -0.014759888 0.020526137 -0.025332266 0.02907805 -0.06806319 6.5745508e-06 -0.012408547
-0.051268 -0.015455768 -0.04002735 -0.024911743 -0.02109779 -0.03735993 -0.025422044 0.0019429318
-0.006859809 -0.0010931484 0.035400137 -0.05361983 -0.089687355 0.008474053 -0.0058163437 -0.054921787
-0.031059906 -0.009474597 0.0053065703 -0.05318145 -0.063541 -0.03814664 0.030778088 -0.041757196
-0.019486818 -0.012366286 -0.036304943 0.017969396 -0.026228346 -0.01892797 -0.009464511 0.014230133
-0.025929606 -0.021607209 -0.0017280153 0.0027566801 0.029112047 0.0054607703 -0.023959164 -0.025460213
-0.039236832 -0.040771045 0.008970482 -0.014486373 -0.005262302 -0.033098653 0.011134824 -0.00070629717
0.0213504 0.0028154491 0.033221204 -0.0015351792 -0.018959878 -0.0020262694 0.026491158 -0.02820596
-0.020782618 -0.05299924 0.038718216 -0.03829438 -0.0040857014 -0.040551223 0.008012065 0.0007109331
0.002259136 0.07344207 0.004260731 -0.058869652 -0.08001513 -0.022602826 -0.037903734 -0.060136948
0.009730158 0.02162527 0.025478195 -0.0037828072 -0.0017496159 0.023706166 -0.014558385 -0.053413987

fc.3.weight f4 [10, 128]
00000000: c7d1 c2be 9a5e abbd 519a aabd 6ca7 2d3e
00000010: 2a7e 4a3e 2d26 6fbd 6b6b 803e b0aa a53d
00000020: d4d1 3bbf a07f 06bf a820 74bd 6c4d b0be
00000030: e360 473c 9e29 69be 7b14 713d 66cd 6ebe
00000040: 4952 5dbe d79f ddbd 09cb cabd 3d84 c73d
00000050: e8e6 aebe cad4 18bd b16a a63d 5b4e 4a3d
00000060: 2bbf d5be 0d51 d2be 9a1b 3ebd 085a 6c3e
00000070: f192 04bf 2dd1 613d a59b 1c3e c050 3a3e
00000080: c1df 193e af22 2a3e cdc9 f4bd b68b 5d3d
00000090: 46e5 34be 8421 6ebd d2d0 043e 4031 5dbe
000000a0: 33fc b8be 4d0f 6dbd 32ea a8be 4681 733d
000000b0: 0c51 f13d e341 1cbf 9ad0 243e 861b 543d
000000c0: 5664 2ebe 93ad 47be 9677 10be 2eab 9ebd
000000d0: 5874 a8be aec0 ba3e 85dc d5bd 92d3 2d3e
000000e0: 8dc8 223e 21e9 b63d b150 6bbe 8e84 8b3d
000000f0: 7324 333e 9143 ebbc ea6c 0f3e 47f7 d9bc
00000100: 153b 513d 961a 733d 64d8 0e3d f34c 0b3e
00000110: 29eb babd 3c38 fbbd a377 6b3e 1841 26bf
00000120: 41b8 b3bd e5b0 12be 4354 d03d 5ca4 00be
00000130: 02df 833d bdff 33be 0412 9f3e ad93 c1be
00000140: bd03 f0bd f896 e6be 86fc e9bd a872 53be
00000150: 8db1 87be 819b 00bf fd4e 673d b5d5 65be
00000160: d400 20be efb4 02bf 1a3e d23c 1d01 41be
00000170: 96f0 18be 0bed 77bf 68ab a33d b2c3 f53d
00000180: 55ea ebbd 0247 483e 4dbe 4c3e d95a 80be
00000190: 050d 153e be59 52bd 27be 72be 4087 26bd
000001a0: e376 b5be eea8 8dbe 7032 6a3d bebc 1dbc
000001b0: 9fd0 94bc 77bc 0ebd d794 b7bd 531b 263e
000001c0: 48a0 723d 1330 25be c319 e0bb a576 6f3d
000001d0: b88d 01be a68e 133e d890 66bd 6c69 263d
000001e0: 46ba b4bc 1827 493e 16e0 6ebb 62f3 613e
000001f0: a466 533e 0b60 883e 631d 713d 603e e4bc
00000200: f0b8 cfbe fc7d 31bd 7bee e43d a35b acbe
00000210: dec8 aebe c787 0fbb f345 3dbf 62f2 093f
00000220: e0fe 9cbe 56fe 593e adef 7dbd 49cd 9ebb
00000230: 3da1 5fbd 3fd0 0e3c c688 0d3e 77b8 a93d
00000240: 380f b33d 1bc3 93bd 9788 b8bd ee8c f1bd
00000250: f4e1 9d3e 4de2 abbe efbc 953e ea5d 53bd
00000260: ead8 283e 30cb 173e b23b b93c 740e 88bb
00000270: d888 dc3d 017e 303e 52b2 b1be 32b2 6dbe
00000280: 26bd 28be bf88 abbe d458 32bf e314 39be
00000290: d3b0 bebd 24ce 7cbc 4557 e83d 7476 973e
000002a0: 231c 3a3d 726c 70bc 86d3 833e fd19 ecbe
000002b0: d488 10be 16d3 c03d 966f 9d3c 44f5 943c
000002c0: 9d95 e3bb f9cc 72be 7b77 0b3e dcb1 92be
000002d0: cd1f 0e3e 2015 6f3e 2800 8c3e 15e7 26bc
000002e0: 790b 08bf 010a d1bd c57e 343d f438 dcbe
000002f0: 653e 9b3c 189f f43c de92 9cbe 32d8 1e3e
00000300: 8912 093d 8a90 34bd b227 54be 27d7 c93e
00000310: 3f37 0bbd c7a3 cf3d 1513 eebe 9c1e 023e
00000320: 8834 4b3e 6d5f 35bd e659 f53d 8544 1abe
00000330: f947 9cbe c8c5 93bd f6cd 0c3d 7fb2 e8be
00000340: 7d0b a13c 575c d4bc 26cf c0bd 5ce9 a33c
00000350: 0c56 dc3d 2c39 223d a7f4 64bc d050 083e
00000360: cda7 8e3e a3d4 503d 143b 7fbd 448d d93e
00000370: e47e 923e 7fc2 acbd 4cc3 9c3d 7d32 c63d
00000380: cd79 f23d e44f e5bd cddb cf3d db14 a9bd
00000390: 7762 733e 89fb 913e bceb a4be 66e6 0a3a
000003a0: ad4f d5bc 81ec d13d ac8c 123d 85f5 9c3d
000003b0: 9311 d33d 3ec4 d9bc 5fc8 51bd e7c2 98bc
000003c0: 0f15 1d3d c37e 8ebd 70d2 dfbe 6f84 ce3d
000003d0: 1da2 7bbd 767d babd e9c8 15be e751 6bbd
000003e0: 0f18 01be 3a53 1bbe 7201 17be 3e09 60be
000003f0: 4bd3 f0be 265b b13e 88c6 39be 24eb 39bb
-0.38050672 -0.08367653 -0.08330215 0.16958398 0.1977469 -0.058386017 0.25081953 0.08089197
-0.7336705 -0.5253849 -0.059601456 -0.34434068 0.012169096 -0.22769782 0.058857422 -0.23320541
-0.2161342 -0.10821503 -0.09902007 0.09742019 -0.34160542 -0.037312306 0.081258185 0.04939113
-0.41747412 -0.41077462 -0.04641304 0.23081219 -0.51786715 0.055131126 0.15293749 0.18194866
0.15026762 0.16614793 -0.11952553 0.054088317 -0.17665586 -0.05813743 0.12970284 -0.21600819
-0.36129913 -0.05787592 -0.32991177 0.059449457 0.117830366 -0.61038035 0.160952 0.05178406
-0.17030463 -0.19499807 -0.14108118 -0.07747494 -0.32901263 0.36475128 -0.104424514 0.16975239
0.15896817 0.089311846 -0.2298 0.06812392 0.17494373 -0.028718742 0.14006391 -0.026607169
0.051081736 0.059351526 0.034874335 0.13603573 -0.091268845 -0.12266585 0.22994857 -0.64943075
-0.08775378 -0.14325292 0.10172322 -0.12562698 0.0643902 -0.17578025 0.31068432 -0.3780798
-0.11719463 -0.45037055 -0.11425118 -0.20649207 -0.26502648 -0.5023728 0.056471813 -0.22444804
-0.15625316 -0.5105733 0.025664378 -0.18848081 -0.14935526 -0.96846074 0.079916775 0.120002165
-0.11519305 0.19558337 0.19994469 -0.2506931 0.14555748 -0.051355116 -0.2370535 -0.04065633
-0.35442266 -0.27667946 0.057177007 -0.009627519 -0.018165885 -0.034847703 -0.08963936 0.16221361
0.059234887 -0.1613162 -0.0068390085 0.058462758 -0.12651718 0.14409885 -0.056290478 0.040627882
-0.022061478 0.1964382 -0.0036449484 0.220655 0.20644623 0.26635775 0.058865916 -0.027861774
-0.40570784 -0.04333304 0.11178299 -0.33663663 -0.34137625 -0.0021900998 -0.7393486 0.5388547
-0.30663204 0.21288428 -0.06199615 -0.0048462492 -0.05459713 0.008716642 0.13821706 0.08287137
0.08743137 -0.07214948 -0.090104274 -0.11794458 0.3083645 -0.3357109 0.29245707 -0.051603235
0.16488996 0.14823604 0.022611473 -0.0041521136 0.107682884 0.17235567 -0.3470636 -0.23212507
-0.16478404 -0.33502766 -0.6966679 -0.18074374 -0.0931107 -0.015430007 0.1134477 0.2958256
0.04543699 -0.014674293 0.25747317 -0.46113577 -0.14114696 0.094152614 0.019218247 0.018183358
-0.0069453255 -0.23711003 0.13619797 -0.2865132 0.13879319 0.23347902 0.2734387 -0.01018693
-0.53142506 -0.10206986 0.04406621 -0.43012202 0.01895065 0.029861018 -0.305808 0.1551216
0.033464942 -0.044083156 -0.20718268 0.3942196 -0.033988234 0.1013866 -0.46498933 0.12706989
0.19844258 -0.04428046 0.119800374 -0.150652 -0.3052366 -0.07215458 0.034376107 -0.45448682
0.019658798 -0.025922937 -0.094145104 0.020008735 0.107586 0.039605305 -0.013974345 0.13312078
0.27862397 0.050984036 -0.0623122 0.4249059 0.28612435 -0.08435535 0.076544374 0.096775986
0.11839638 -0.111968786 0.101493455 -0.08255931 0.2376803 0.2851222 -0.322111 0.0005298614
-0.026038969 0.10250188 0.035778686 0.07664017 0.103060864 -0.026582833 -0.05121648 -0.018647624
0.03835016 -0.06957772 -0.4371524 0.100838535 -0.0614339 -0.09105961 -0.14627422 -0.057451155
-0.12606834 -0.15168467 -0.14746645 -0.21878526 -0.47036204 0.34639853 -0.1814214 -0.0028368914

fc.3.bias f4 [10]
00000000: eba0 bbbc c6d1 5bbe 4eea 5ebd 43ec f0bd
00000010: f168 923d a00d 3ebe 0154 ae3d ceb4 dfbd
00000020: a174 a63e 33c8 f83d
-0.02290388 -0.21466741 -0.05442267 -0.11763813 0.07148922 -0.18559885 0.08512116 -0.10923158
0.32510856 0.1214756
